protonet.pth (torch, 81218 bytes, 11 tensors)

prototypes f4 [2, 32]
000000 f4 2b 82 bf e0 6a 8d 3f 20 dd 91 3f 1d e5 92 3e
       -1.0169663 1.1048241 1.1395607 0.28690425
000010 4b 20 01 3f f8 bc 27 3f 56 1e 87 be 20 4c ae 3f
       0.504399 0.6552272 -0.26390332 1.3616982
000020 0d 21 69 3f f3 05 7b bf ae a6 82 be 13 d6 f4 be
       0.91066056 -0.9805595 -0.25517792 -0.47819576
000030 b2 a0 91 bf ed ca 37 3f a1 09 ae bf 15 ad 81 3f
       -1.1377165 0.71794015 -1.3596689 1.0130945
000040 3b 8c a8 3f 1e 8a 9b 3f 96 d2 5e 3f e2 14 3e bf
       1.3167795 1.2151525 0.8704008 -0.74250615
000050 14 10 9b bf 2d 20 66 bf 5c 78 3d bf 92 7e 2c bf
       -1.2114282 -0.89892846 -0.7401178 -0.6738063
000060 63 89 88 3e f9 b8 b1 bf 8a 5f 3d 3f 76 b7 2e be
       0.26667318 -1.3884574 0.73973906 -0.17062172
000070 7d d1 4c 3f 3a e0 5b 3f e6 ca 2a 3f 55 6f 7b 3f
       0.80007154 0.8588902 0.6671585 0.98216754
000080 10 6b c8 be 2e 21 5f 3e 40 17 2a 3e 8d b0 5c bd
       -0.39144182 0.21790001 0.16610432 -0.05387931
000090 c6 65 6f 3e 1a a3 6c 3e 46 8b cd be 40 b3 94 3e
       0.23378667 0.23109093 -0.4014532 0.29043007
0000a0 43 f6 d8 bd c8 8f 09 bf 76 68 a3 be 67 0a b9 3d
       -0.10593846 -0.5373502 -0.31915635 0.09035187
0000b0 c8 fc 23 bf 05 f8 bb 3e 9a 83 67 3c 60 33 44 3d
       -0.6405759 0.3671266 0.014130497 0.047900558
0000c0 63 f7 73 3e 94 a3 0a 3f ce bb d7 3e d5 99 d6 be
       0.2382484 0.5415585 0.4213547 -0.4191424
0000d0 22 44 a6 be e3 b9 87 be b6 52 67 3e 8d fe 02 bd
       -0.32473856 -0.26509008 0.22590145 -0.03198104
0000e0 b8 0e 21 3d b2 28 10 bf 0a 61 b4 3e 83 0b 7c be
       0.039320678 -0.56312096 0.35230285 -0.24613766
0000f0 aa 19 33 bd 7e 16 4e 3d d1 5e a2 3e 9e e1 19 3f
       -0.043725647 0.05031442 0.31712964 0.6010989

fc.0.weight f4 [128, 64]
000000 46 e3 b1 ba 80 0c e5 3b d0 d7 f5 3d 9f 28 48 bc
       -0.0013571761 0.0069900155 0.120040536 -0.012216716
000010 80 2d ce 3d 7b ac 94 3d 52 99 a1 3d e4 a3 8a 3d
       0.10067272 0.072594605 0.07890572 0.06769541
000020 ba 5f 6e 3d 67 56 10 bd 57 37 4c 3d 4c a5 05 bd
       0.05819676 -0.03523865 0.049857464 -0.032628343
000030 d2 d1 0c 3c 1b 8f 26 3d 51 9a bb bd 73 43 a2 bd
       0.008594947 0.04066382 -0.09160293 -0.07923021
000040 c2 de a8 bd ca c3 1b bd eb bd ea 3c 67 0b aa 3d
       -0.08245613 -0.038028516 0.028655013 0.08302956
000050 9f ee 45 3d bc 22 67 bd 41 4c 81 bc 27 de dd 3c
       0.04832327 -0.05642961 -0.015783431 0.02708347
000060 79 99 84 bd af 09 ca bc 2f 13 82 3d 04 ad 93 bc
       -0.06474585 -0.02466282 0.06351315 -0.018026836
000070 d9 b2 a4 bd 29 4e 95 3d 1d 48 f0 bd 50 db f6 bd
       -0.08041925 0.072902985 -0.117325045 -0.12053549
000080 ca 5c ae 3d 42 71 63 bd dc fb ab bd f5 b1 ef bd
       0.08513792 -0.055527933 -0.08397648 -0.117038645
000090 1c 3d 56 3d 08 d8 d1 3d 39 5a 14 bd d1 ef dd bd
       0.052304372 0.10246283 -0.036218856 -0.10836757
0000a0 03 2a b0 3d 90 13 45 bc 73 47 fc bb b7 cd 4a 3d
       0.08601763 -0.01202859 -0.007698947 0.04951259
0000b0 65 94 6a 3d 8b 06 c9 bc 74 ae 9d 3d 15 74 bf bd
       0.057270426 -0.024539253 0.0769929 -0.09348313
0000c0 50 b9 f8 bd dd 25 a2 3c 03 33 f3 bc 58 bb 6c bd
       -0.121447206 0.019793445 -0.02968741 -0.057795852
0000d0 8a e7 0f be 17 70 49 3c 65 d2 f6 3d e8 28 e3 bc
       -0.14053169 0.012294791 0.12051848 -0.027729467
0000e0 b0 fb f0 bd f1 11 80 3d e4 33 3c bd 5e c0 d6 3d
       -0.117667556 0.06253422 -0.045947924 0.1048591
0000f0 af 4d 56 3c ed 0e 92 3c 40 b2 1b 3e 86 92 af 3d
       0.013080045 0.017829383 0.15204716 0.08572869
000100 ab d3 aa 3c a0 4a 69 bd eb e5 c7 3d c2 3f f7 bd
       0.020852884 -0.056955934 0.0976065 -0.12072708
000110 84 a7 97 3d d8 a9 0b 3d ed c4 c2 bd 2c 82 b0 bc
       0.07404998 0.034097522 -0.09510217 -0.021546446
000120 23 62 39 bd 28 63 8e 3c d9 e6 9e 3d 16 b4 00 3e
       -0.045259606 0.017381266 0.077588744 0.12568697
000130 da 36 07 3e 1f b7 86 bd 72 04 10 3b 99 0d 99 bd
       0.13204518 -0.06577896 0.0021975306 -0.07473297
000140 0b 4e e6 bc 25 7d b1 3d da 90 3b 3c ba 6c c1 3c
       -0.028113386 0.086664476 0.0114481095 0.023611415
000150 4a 02 3f bd 90 c4 a7 bc 21 12 a8 bd 78 40 98 bd
       -0.046633042 -0.02047947 -0.08206583 -0.074341714
000160 c5 6b db bd 45 29 cc 3d e7 2c ac bd 35 ad d5 3d
       -0.10713915 0.09968809 -0.08407002 0.10433427
000170 be b9 f9 3d 59 af 94 bb 89 38 57 bd a7 95 ba 3d
       0.12193631 -0.0045375046 -0.05254415 0.09110575
000180 eb 71 cd 3c e8 24 47 bd 54 3b d1 bd 47 5d 89 bd
       0.025078734 -0.04861918 -0.10216394 -0.06707244
000190 56 1e 22 bd 4c 35 97 bc 68 c9 d9 3d 68 ff 19 3d
       -0.03957971 -0.018458031 0.10634118 0.03759709
0001a0 db e2 a9 3d f3 d3 89 bd 6a 2e 8b 3d d7 6a fd 3d
       0.08295222 -0.06729879 0.06795962 0.12373894
0001b0 75 d7 05 bd 27 4f 83 bd d2 88 16 3d 1b 89 4a 3d
       -0.03267618 -0.064115815 0.036751576 0.04944716
0001c0 7a 24 e4 3d c5 3d bf bd 5d c9 51 3d 32 d5 d6 3d
       0.1113977 -0.093379535 0.051217426 0.104898825
0001d0 aa 99 fd bc cd e4 e6 bd c6 34 cf 3d 17 0e 5e 3d
       -0.030957062 -0.11274109 0.101174876 0.054212656
0001e0 94 3b 9c 3d 83 f8 06 3d d9 80 e8 3d 75 4c 81 bd
       0.07628551 0.032951843 0.11352701 -0.06313411
0001f0 02 2a a5 bd c2 b1 bf 3c a9 cf a5 3d f8 14 a5 bd
       -0.08064653 0.023400191 0.08096249 -0.0806064
000200 5c 05 a9 bc 9a 5a 82 bd c0 4c a6 3d 38 54 88 3c
       -0.020632438 -0.06364937 0.08120108 0.016641721
000210 17 b9 35 3c 73 41 22 3d 04 37 c9 bd 6a 5b 50 3d
       0.011091492 0.0396132 -0.098249465 0.05086843
000220 cd 43 88 bd 95 ae a3 bd c6 8a 6d 3d fc 3e b3 bd
       -0.06653557 -0.07992283 0.057993673 -0.08752248
000230 07 44 7c 3d dc 47 5d bc 72 ff 6a bc 5d 3d 18 bc
       0.061588313 -0.013505902 -0.0143431295 -0.009291974
000240 a0 08 a8 bd 17 73 b9 3d d0 08 8c 3d 16 04 47 3d
       -0.0820477 0.09055155 0.06837618 0.04858788
000250 71 fb c9 3d 38 8a c3 bc e3 27 91 bd 1b 13 cd 3d
       0.09862412 -0.023869619 -0.07087686 0.1001341
000260 6b 03 8b bd d9 f9 43 3b 8f 90 c6 3d 76 84 0f bd
       -0.06787761 0.002990356 0.09695541 -0.035038434
000270 5c fa f5 bb 8c 5a 05 3e 5f 52 d6 3d 6c bc 56 3d
       -0.007506652 0.13022822 0.1046493 0.052425787
000280 ce ef a9 bd dd a9 05 be 2e 2f b3 3d b7 20 b7 3c
       -0.08297692 -0.13053079 0.08749233 0.022354467
000290 bf d8 bf 3c d4 d2 d2 bd 1d df 29 3d f5 c4 40 3d
       0.023418782 -0.102941185 0.041472543 0.047062833
0002a0 57 a3 4c 3d f9 b9 1d bd df 2e a1 ba b2 e9 a1 bd
       0.04996046 -0.038507435 -0.0012297294 -0.07905902
0002b0 1e 2a fd 3b 3e d9 f9 3d 2b ee ef 3c 52 12 e8 bb
       0.007725968 0.12199639 0.029288372 -0.007082262
0002c0 51 53 6b bc ca c6 1d bd 1a a4 8c bd c2 9b 98 bd
       -0.014363126 -0.03851966 -0.068672374 -0.074515834
0002d0 19 86 a1 3c 24 d6 26 bd 88 8e cc 3d 3a b8 02 3e
       0.019717263 -0.040731564 0.09988123 0.1276559
0002e0 71 c4 6f bd 83 fc b8 3d 8b 29 ae bc c2 b7 8d 3c
       -0.05853695 0.09032538 -0.021260044 0.017299537
0002f0 5b b4 69 bd e9 9b d7 bd d0 e4 7a 3c 7c 84 d1 3d
       -0.057056766 -0.105277844 0.015313342 0.102303475
000300 11 7d 18 3e 80 d0 73 bb 9a ea 82 3d 45 29 8e ba
       0.14891459 -0.0037203133 0.06392403 -0.001084604
000310 49 b1 ea bd 61 ad cb 3c d2 7f 14 bd 1b 67 3b bd
       -0.11459596 0.024862947 -0.03625471 -0.045752626
000320 38 3b 6c bd 1b 5a ac 3d b8 34 1a be 12 3f e9 bc
       -0.057673663 0.08415624 -0.15059173 -0.028472457
000330 ca 5b e6 3d 4b 5e d5 3d c2 89 97 bd e3 50 34 3d
       0.11247976 0.104183756 -0.07399322 0.044022452
000340 47 97 18 3d 55 00 6b 3d de a7 04 3d 48 92 82 3b
       0.037253644 0.057373364 0.032386653 0.0039847232
000350 f8 f0 8b 3d 94 4d 5e 3d 3b 5f 3f bd c3 6b 29 3d
       0.068330705 0.054273203 -0.04672168 0.041362535
000360 e4 4c b5 3d 55 75 76 3d 53 58 c3 3c 63 f7 f4 bd
       0.08852556 0.06017049 0.023845827 -0.11961248
000370 a4 e2 aa 3d 2e aa e8 3d d1 ec fd bd 3d e9 96 3d
       0.083440095 0.11360584 -0.12398685 0.073687054
000380 1d fe 24 bd de fa b3 bd df 36 2c 3d 4b d6 79 3d
       -0.040281404 -0.087880835 0.042044517 0.06099538
000390 cf 3f b0 3d d0 79 59 3d 92 a8 d0 3d 43 d7 75 3d
       0.086059205 0.053094685 0.10188402 0.060019743
0003a0 c9 4e 02 3e e5 3c ca bd 7b cd fe 3d 53 73 e8 bc
       0.12725367 -0.09874896 0.12441536 -0.028375303
0003b0 96 47 0e bc 22 02 00 be 60 60 c9 bb d1 59 63 3d
       -0.00868406 -0.12500814 -0.006145522 0.055505577
0003c0 de d5 c3 bd 7b 6b 56 3d b1 70 6d 3d ff 4b b7 3d
       -0.09562276 0.052348595 0.0579688 0.08950042
0003d0 f6 82 8a bc d4 1e 70 bd f5 6b 5a bd 83 be 05 3e
       -0.01690815 -0.05862315 -0.053325612 0.13060956
0003e0 85 a9 5d bd fb f6 fd bd 55 4c 2e bc 0d 22 e9 bd
       -0.054116745 -0.124006234 -0.010638316 -0.11383448
0003f0 6e bc 6b 3d 21 e7 c6 3c 7f 35 da bd 79 19 2c bd
       0.057552747 0.024280133 -0.10654735 -0.04201648

fc.0.bias f4 [128]
000000 c8 43 80 3d 60 09 14 be 51 e7 31 bd 4d fd 21 3d
       0.06262928 -0.14456701 -0.04343349 0.039548207
000010 fa 53 04 be 0c 82 6c 3d 74 e3 e3 3d fa a9 bb bd
       -0.1292266 0.05774121 0.111273676 -0.0916328
000020 3b e9 a7 bd 72 07 f8 bd fe c1 a1 bd 96 e5 a7 bd
       -0.08198782 -0.12110795 -0.07898329 -0.08198087
000030 43 6e 9f 3d d9 1e 99 bd dd 98 89 3d 9d fd 25 3c
       0.07784703 -0.07476587 0.067186095 0.010131267
000040 ea 39 c8 bd e0 74 a0 bd 06 16 68 3d dc d1 3c bc
       -0.09776671 -0.07834792 0.05666163 -0.011524644
000050 a3 de c9 bd fc 8c 14 bc fd 39 51 3c 5f 9c 9c bd
       -0.09856918 -0.009066816 0.012770173 -0.07647013
000060 f4 09 5a bd 2a ee 1d be 01 e6 4a be a2 f0 6c 3d
       -0.05323215 -0.15422884 -0.19814302 0.057846673
000070 4b 33 c6 bd 7e 73 96 3d 13 6d 1a be fd 62 96 3c
       -0.09677752 0.07346247 -0.15080671 0.018357748
000080 c7 a1 90 3d 86 0c b0 bd 8a 41 c8 3c b3 05 03 3e
       0.070621066 -0.08596139 0.024445314 0.12795143
000090 82 88 02 bd f7 d1 be bd 01 f0 c1 bd ce fd 34 bd
       -0.031868465 -0.09317391 -0.09469605 -0.04418736
0000a0 31 2e b0 bc b9 81 0b be 2e 14 b7 3c b8 62 1a 3d
       -0.0215064 -0.13623704 0.02234849 0.0376918
0000b0 bb cb c9 3d f2 69 b7 bd b1 69 07 bd 3c c9 8e bd
       0.09853312 -0.08955754 -0.03305978 -0.06971976
0000c0 be c4 c7 bc 2e 98 52 3d 4a 22 03 bc a4 9c 39 bd
       -0.024385806 0.05141466 -0.008003781 -0.0453154
0000d0 45 94 2d 3d fa c0 91 bd 99 52 9d bd 79 cf 81 3d
       0.04237773 -0.071168855 -0.0768177 0.063384004
0000e0 f4 80 13 be 29 22 4f 3d 9d f6 0c 3c d2 cf c1 3d
       -0.1440466 0.050569687 0.008603719 0.09463467
0000f0 dd 7a 58 bd 41 66 0f be 7b 56 a4 3d ff cd af bd
       -0.052851547 -0.1400385 0.08024307 -0.085842125
000100 7e 6c 42 bd c0 7d d3 ba f9 d2 0d be 88 f1 b1 3c
       -0.047466747 -0.0016135499 -0.13850011 0.021721616
000110 05 6f e5 bd dc 04 82 bb 62 a7 66 3d 2c 51 f9 3d
       -0.11202816 -0.0039678644 0.056311972 0.121736854
000120 44 92 94 bd 9c 61 30 be ed 35 e1 bc d1 80 c3 bd
       -0.072544605 -0.17224735 -0.027491534 -0.09546054
000130 6c 2c 3d be 2d 07 17 be 2f a6 e4 3d a6 86 8e 3d
       -0.18473977 -0.14748831 0.111645095 0.06959276
000140 b5 de 15 bd a2 4e 13 bd 7a d2 30 3d 48 6c 9b bc
       -0.036589343 -0.035963662 0.043169476 -0.018972531
000150 23 86 ba bd 56 b0 48 be f9 b6 69 bd 0e c6 8a bd
       -0.09107616 -0.19598517 -0.057059262 -0.06776057
000160 99 3b d8 bd 9b be e6 bd 89 46 22 3d 44 e3 06 be
       -0.10558242 -0.11266824 0.03961805 -0.13172632
000170 26 f2 83 3d 55 ee 82 bc b8 e6 3f 3d bf 2a f6 bc
       0.064426705 -0.015982786 0.04685089 -0.03004968
000180 ab 7a 88 bd 15 40 ab bd b4 68 2f bd e5 37 93 3d
       -0.06664022 -0.08361832 -0.042824462 0.071883954
000190 3c 71 ec bd cd 41 95 bd 14 48 1b be ea ad 03 bc
       -0.11545035 -0.07287941 -0.15164214 -0.00803707
0001a0 2b 69 42 3d 3f 4f e3 bd bc a8 d6 bd 01 57 8a 3d
       0.047463577 -0.11099099 -0.10481402 0.06754876
0001b0 bc f8 fb bd be b8 d2 bd 25 af b7 bd a6 7a 05 be
       -0.12303302 -0.10289143 -0.08968953 -0.13035068
0001c0 bf c1 e7 bd a9 6c 8d bd ef ef 97 bc a0 49 57 bc
       -0.11316251 -0.06905491 -0.018547026 -0.013140112
0001d0 a9 83 b8 bd 91 ed 9b 3d 8d a8 e7 bd d0 36 d8 bd
       -0.09009487 0.076136716 -0.113114454 -0.1055733
0001e0 b9 a2 9d 3c 7b ca 82 3d fa 22 28 3c 7b 63 35 bd
       0.019242631 0.06386276 0.010262245 -0.044284325
0001f0 55 4b c5 bd 02 c2 c3 3d e2 ae d7 3b 7a 57 1c bd
       -0.09633509 0.095584884 0.006582127 -0.03816936

fc.3.weight f4 [128]
000000 75 87 7a 3f 40 48 7b 3f cc 5f 80 3f e5 12 83 3f
       0.9786294 0.9815712 1.0029235 1.0240141
000010 27 07 7c 3f 87 33 81 3f 79 05 81 3f de d6 86 3f
       0.98448414 1.009385 1.0079795 1.0534322
000020 47 1b 84 3f 39 f6 81 3f 84 c8 84 3f 89 55 82 3f
       1.0320824 1.0153266 1.0373693 1.0182353
000030 aa bf 82 3f 0d 94 7d 3f a7 74 7e 3f 58 97 7f 3f
       1.0214741 0.9905403 0.9939675 0.9984031
000040 1a ed 83 3f 9c 69 84 3f 03 c2 7d 3f 28 75 83 3f
       1.0306733 1.034473 0.99124163 1.0270128
000050 b7 92 81 3f b3 9e 82 3f 3c b0 7d 3f 70 a1 7f 3f
       1.0122899 1.0204681 0.9909704 0.9985571
000060 10 45 7e 3f de 9e 80 3f 89 e4 83 3f aa 8a 84 3f
       0.9932413 1.0048482 1.0304118 1.0354817
000070 34 a1 7f 3f 0a 91 82 3f 7f b9 82 3f 52 c6 7f 3f
       0.9985535 1.0200512 1.0212859 0.9991199
000080 eb 15 83 3f 14 e1 85 3f 71 ac 81 3f d9 d0 7a 3f
       1.0241064 1.0459313 1.013075 0.97974926
000090 19 14 84 3f 87 24 81 3f 88 2a 83 3f f9 a2 80 3f
       1.0318633 1.0089272 1.0247355 1.0049735
0000a0 d8 a7 82 3f 88 c0 7d 3f ec b6 83 3f fe ad 7e 3f
       1.0207472 0.99121904 1.0290198 0.9948424
0000b0 e4 39 81 3f f1 8d 81 3f 27 52 82 3f 78 2d 82 3f
       1.0095792 1.0121442 1.0181321 1.0170126
0000c0 55 81 7f 3f 2d 90 82 3f 2c 79 79 3f d2 ae 83 3f
       0.9980672 1.0200249 0.9745052 1.0287726
0000d0 c0 c4 7c 3f 9d 5e 7c 3f a0 b1 7c 3f b2 6a 80 3f
       0.98737717 0.9858187 0.98708534 1.0032561
0000e0 38 a0 7f 3f 62 9e 82 3f f5 11 82 3f 76 fa 83 3f
       0.9985385 1.0204585 1.016173 1.031081
0000f0 fb fb 80 3f 1d 9e 82 3f 37 ef 80 3f 3f ac 85 3f
       1.0076898 1.0204502 1.0073003 1.044319
000100 41 6a 81 3f 87 a4 82 3f dd 53 7d 3f 35 38 86 3f
       1.0110551 1.020646 0.9895609 1.0485903
000110 74 c7 81 3f 3f 58 7c 3f 7d 7c 7e 3f 78 2c 83 3f
       1.0138993 0.9857215 0.99408704 1.0247946
000120 b6 e3 85 3f 3e 4c 82 3f b9 93 81 3f 2b fd 7e 3f
       1.0460117 1.0179517 1.0123206 0.99605054
000130 d9 e7 81 3f 52 d4 80 3f 4e 38 80 3f 17 30 81 3f
       1.0148879 1.0064795 1.0017183 1.0092801
000140 97 47 83 3f bb 7c 81 3f 4b 13 80 3f cd ae 79 3f
       1.0256222 1.011619 1.0005888 0.9753235
000150 6d 59 7c 3f 5d 94 83 3f 88 cb 81 3f c1 1d 80 3f
       0.9857395 1.0279652 1.0140238 1.000908
000160 67 c0 85 3f c9 1e 80 3f 14 19 81 3f 16 61 7d 3f
       1.0449342 1.0009395 1.0085778 0.98976266
000170 16 f7 7b 3f 1d 0f 80 3f 63 2a 82 3f bf 89 7a 3f
       0.984239 1.0004612 1.0169185 0.97866434
000180 65 43 81 3f 32 09 7d 3f ba bd 82 3f f6 dd 80 3f
       1.0098692 0.98842156 1.021415 1.0067737
000190 df 26 80 3f 18 c4 7b 3f 8c 13 80 3f 87 45 80 3f
       1.0011863 0.9834609 1.0005965 1.0021218
0001a0 83 3c 82 3f e0 fd 77 3f 03 3e 80 3f 9d 9d 81 3f
       1.0174717 0.9687176 1.0018924 1.0126225
0001b0 85 41 7f 3f 59 eb 80 3f 11 d6 80 3f a0 ff 83 3f
       0.9970935 1.0071822 1.0065328 1.0312386
0001c0 63 ea 82 3f ad 48 81 3f db 4a 84 3f 02 86 81 3f
       1.0227779 1.0100304 1.0335344 1.0119021
0001d0 a9 37 80 3f 80 10 7b 3f 03 bf 81 3f ba 29 7c 3f
       1.0016986 0.9807205 1.0136417 0.9850117
0001e0 3d 85 80 3f 30 b7 82 3f 81 2a 82 3f 20 45 86 3f
       1.0040661 1.0212154 1.0169221 1.0489845
0001f0 e8 72 80 3f 99 a8 81 3f 2d 5e 7c 3f 72 c6 7c 3f
       1.0035067 1.0129577 0.985812 0.98740304

fc.3.bias f4 [128]
000000 b5 f9 61 bd 5a 66 75 bd 10 4f 52 3d 52 ec 09 bd
       -0.05516978 -0.059912063 0.05134493 -0.03367264
000010 6f 2d 4b bb f3 ab 15 3c 35 be c2 3c 8a b4 58 3d
       -0.0031002422 0.009135234 0.023772338 0.05290655
000020 e0 a1 73 3d 7f ac 44 bd 22 37 87 3d 13 a0 37 bc
       0.059480548 -0.048016068 0.066023126 -0.011207598
000030 d3 17 16 3d e6 cc f3 3c 66 f2 c9 bc ca 7f 30 bd
       0.036643814 0.02976079 -0.024651717 -0.04309062
000040 af c9 94 bd be c1 2b bd 1f 30 83 bd 6f 1b 30 3d
       -0.072650306 -0.041932814 -0.06405663 0.042994913
000050 33 a9 61 bd e7 16 0c 3b 11 13 ff 3c 0f a8 13 3d
       -0.055093 0.0021375956 0.031137021 0.036048945
000060 6a 8e 18 bd 9d a0 40 bd cb 52 28 bd 77 6a 24 3d
       -0.03724519 -0.047028173 -0.041094583 0.040140595
000070 b1 8e 2f bd de 08 6c 3d fd b1 4a bc a6 6e 25 bb
       -0.04286069 0.057625644 -0.012371537 -0.0025242954
000080 68 7b ca 3c 81 f5 3e 3d 2a c8 c7 3c 67 0b 9b bc
       0.024717048 0.04662085 0.024387438 -0.018926335
000090 e8 d6 43 bd 8a b8 ad 3c 55 76 43 3d 81 fc 72 3b
       -0.047812372 0.02120616 0.047720272 0.0037076774
0000a0 39 bf 25 bd d4 a4 8d bd 4e cb 83 3d 3b 71 7b bd
       -0.040465567 -0.06916204 0.06435262 -0.061387282
0000b0 28 0d e1 3c 14 73 88 3b 4e 30 64 3d 1d de 3f 3d
       0.027472094 0.004164109 0.05571013 0.046842683
0000c0 43 92 48 bd c5 27 fb bc 55 41 2d bc fb a5 43 bd
       -0.04896761 -0.030658612 -0.010574658 -0.047765713
0000d0 92 7d 09 bc 21 e9 09 bc 2f 1b 7b bd 25 07 3f 3d
       -0.008391755 -0.008417399 -0.06130522 0.046637673
0000e0 71 e0 84 bd 15 05 4a 3d 1c c7 1f bd 9d ef 6c 3d
       -0.06488121 0.049321253 -0.039008245 0.0578457
0000f0 4b 65 9a bd 4d 8d 28 bd 61 87 de 3a a5 da 31 bd
       -0.07538851 -0.04115038 0.0016977602 -0.043421406
000100 80 e1 2b bd 9c 3d 73 bc 4c 79 12 bd f2 ae e0 3c
       -0.0419631 -0.014846232 -0.03576021 0.02742717
000110 18 86 78 bd fc fd 1e 3d 9d 88 50 bc cd 0e 7a bc
       -0.060674757 0.038816437 -0.012727884 -0.015262318
000120 f7 c3 39 3d 21 56 3a bd 91 f0 50 3d 16 df 83 bd
       0.045352902 -0.045492295 0.051010672 -0.06439035
000130 0d 53 9b bd 5b c9 40 bd a6 83 25 bd 31 41 8e 3b
       -0.075842 -0.047067028 -0.040408753 0.0043412675
000140 a2 1c 0a bd b1 da 42 bd 15 69 52 bd 30 e7 3f 3c
       -0.033718713 -0.04757184 -0.051369745 0.011712834
000150 16 f6 9a bc 05 69 61 bd c9 ea 05 bc 87 0d 30 bd
       -0.018916171 -0.055031795 -0.008173653 -0.04298165
000160 cb 21 d4 3c 80 5b af bc b9 cb 84 3d 68 51 43 bd
       0.02589502 -0.021405935 0.064841695 -0.047685057
000170 42 b3 2f bd 75 14 40 bd 88 ce 4d bd a7 f9 a2 3b
       -0.042895563 -0.04689451 -0.05024579 0.0049736085
000180 0d 17 5c bd 20 31 82 bd dc ff e2 bb bb 95 0c 3c
       -0.05373292 -0.06357026 -0.0069274735 0.00858062
000190 4e e1 17 bd ab bd e5 3c 94 99 04 bd ce b2 a6 bd
       -0.0370801 0.028044542 -0.032373026 -0.08139573
0001a0 e3 51 8d bb a4 9f d1 bb f5 24 53 3d e5 7f 13 3c
       -0.00431274 -0.0063972045 0.051548917 0.00900266
0001b0 4e 46 00 bc 72 6d 58 3d da 77 5d 3d f0 32 1c bd
       -0.007829262 0.05283875 0.054069377 -0.038134515
0001c0 06 f8 88 3d 55 19 0b 3d 10 45 f9 3c c2 5e 17 3d
       0.06687932 0.033959705 0.03042844 0.036955602
0001d0 0d 4b 35 bd 9b 62 f6 bc 5d 2e b1 bc 88 fc ec 3c
       -0.044261027 -0.030076316 -0.021628553 0.02892901
0001e0 b2 0e 3a 3d dd 0a 86 bd 65 b4 28 bd 6c 4a 90 3d
       0.04542417 -0.06545041 -0.041187663 0.07045445
0001f0 a8 3c 4c bd 1b 6d a4 bc 5b ee 3b bc 2d 27 64 3c
       -0.049862534 -0.020071557 -0.011470403 0.013925356

fc.3.running_mean f4 [128]
000000 4c ad 87 3e 46 b1 2a 3e f2 75 28 3e 83 9c 88 3e
       0.26499403 0.16669187 0.16451243 0.2668191
000010 7a b8 3b 3e ae 2e 98 3e 58 3e 60 3e 4e 6c fa 3d
       0.18332091 0.29723114 0.21898782 0.12227689
000020 d3 2a 1b 3e 9c a3 6e 3e 8e f0 db 3d 65 a1 40 3e
       0.15153055 0.233046 0.107392415 0.18811567
000030 24 79 64 3e a8 de 37 3e 0e dc 75 3e 44 b8 83 3e
       0.22311836 0.1795603 0.24009725 0.2572652
000040 2f bb 52 3e 6b 65 38 3e 43 2b a3 3e 29 86 27 3e
       0.20579217 0.18007438 0.31868944 0.16359772
000050 62 2d 49 3e 12 92 35 3e dc b7 45 3e 38 8a 3d 3e
       0.19646218 0.17731503 0.19308418 0.18509758
000060 7b 2f 58 3e 92 ac 2c 3e f7 c9 07 3e ea d9 4c 3e
       0.21111862 0.16862705 0.13260637 0.20005003
000070 51 d4 34 3e af 09 42 3e 03 af 02 3e c0 70 76 3e
       0.17659117 0.18949006 0.12762074 0.24066448
000080 51 59 43 3e 75 f7 1a 3e d7 d0 2b 3e d2 b6 80 3e
       0.1907704 0.1513346 0.16778885 0.2513948
000090 31 ad 7d 3e 07 d4 24 3e 76 cb 26 3e 4a b7 5d 3e
       0.24773099 0.16096507 0.16288552 0.2165195
0000a0 9b d6 50 3e 35 81 50 3e 1a e6 4e 3e a4 d2 94 3e
       0.20394365 0.20361789 0.20204964 0.29066956
0000b0 ae 39 69 3e 38 dd 3c 3e fc ea 19 3e 4a 52 74 3e
       0.2277591 0.18443763 0.15031046 0.23859516
0000c0 28 55 41 3e 6a a4 94 3e e6 68 7b 3e 21 20 60 3e
       0.18880141 0.29031688 0.24551734 0.21887256
0000d0 b0 83 77 3e 8e 4a 67 3e d1 9a 3c 3e c3 c0 59 3e
       0.24171329 0.22587034 0.18418433 0.21264939
0000e0 b0 3d 3e 3e 2e a0 95 3e f5 8b 66 3e eb 24 80 3e
       0.1857822 0.2922377 0.22514327 0.25028166
0000f0 68 64 56 3e fe 0a 0d 3e f5 a6 89 3e 3a 14 81 3e
       0.2093674 0.13773724 0.2688519 0.25210744
000100 7b 31 47 3e a5 03 74 3e 94 b1 71 3e 72 b6 5e 3e
       0.19452469 0.23829515 0.23602897 0.21749285
000110 e5 a8 45 3e df 93 51 3e 77 48 54 3e 27 47 ca 3e
       0.1930271 0.20466565 0.20730768 0.3950741
000120 34 50 13 3e 5a d0 45 3e 0e 23 3d 3e 4b f0 1f 3e
       0.14386064 0.19317761 0.18470404 0.15619008
000130 d5 39 12 3e 62 f6 32 3e f9 18 ab 3e dd e9 5e 3e
       0.14279874 0.174768 0.3341749 0.217689
000140 a8 ab 6a 3e 5b 16 70 3e b8 49 61 3e 8f 26 98 3e
       0.22917044 0.23446028 0.22000778 0.29716918
000150 f0 10 22 3e 3f 40 ff 3d 0a eb 40 3e fe 90 94 3e
       0.15826774 0.12463426 0.1883966 0.2901687
000160 56 e3 30 3e 1d c6 4f 3e a9 0f 6a 3e 51 da 52 3e
       0.17274222 0.20290418 0.22857536 0.20591094
000170 f4 70 96 3e 19 89 43 3e 8d c5 61 3e d4 d7 20 3e
       0.2938305 0.19095267 0.22048016 0.15707332
000180 3e 1f 2b 3e ef 6b 38 3e f3 cd 51 3e e2 91 8c 3e
       0.16711137 0.18009923 0.2048872 0.2745505
000190 4a 5c 14 3e d4 18 50 3e db 85 69 3e de 95 7f 3e
       0.1448833 0.20321971 0.22804968 0.24959514
0001a0 ae d8 4a 3e ac 2d 57 3e 37 73 fc 3d 86 fa 6d 3e
       0.19809219 0.21013516 0.12326663 0.23240098
0001b0 81 75 3d 3e 90 10 14 3e 94 3d c0 3d 88 5e f8 3d
       0.18501855 0.14459443 0.09386745 0.121274054
0001c0 f1 84 c4 3d 18 83 20 3e 99 0a 58 3e 69 9c 24 3e
       0.09595669 0.15675008 0.21097793 0.1607529
0001d0 38 36 47 3e bc 92 8e 3e a5 e7 0c 3e dc f9 7e 3e
       0.19454277 0.27846324 0.1376024 0.24900001
0001e0 68 8c 79 3e 10 ad 83 3e 70 e1 72 3e fe 78 23 3e
       0.24369967 0.25717974 0.2371881 0.15964124
0001f0 b2 34 24 3e d6 bb aa 3e 06 44 a2 3e fd b0 37 3e
       0.16035727 0.33346432 0.31692523 0.1793861

fc.3.running_var f4 [128]
000000 5d 0d 4f 3e e8 63 e4 3d 4a ca af 3d 24 86 31 3e
       0.20219941 0.11151868 0.085835055 0.17336327
000010 b7 7a 1b 3e f7 6b 64 3e c9 01 f1 3d a2 7e 9a 3d
       0.15183531 0.2230681 0.117679186 0.075436845
000020 bc d3 bc 3d 78 21 55 3e 25 8b 71 3d 89 b5 2b 3e
       0.092200726 0.20813549 0.05897059 0.16768469
000030 cd 05 1c 3e 13 50 21 3e 6f 61 25 3e 0d 7d 3a 3e
       0.15236588 0.15753202 0.16150449 0.18211766
000040 cf 1b e9 3d 9d 3b ad 3d ab 8e 80 3e e4 41 de 3d
       0.11382257 0.08458636 0.25108847 0.108524114
000050 ba 8a ea 3d af 98 d3 3d 6c 14 fa 3d 61 94 09 3e
       0.11452241 0.103318565 0.122109264 0.13435508
000060 e7 b2 44 3e 4e a8 e0 3d 7d 11 84 3d e0 f2 06 3e
       0.19208871 0.109696016 0.06448648 0.13178587
000070 14 85 b1 3d 2e 1f 0c 3e 8a b2 8f 3d 4c 82 2a 3e
       0.08667961 0.13683769 0.070164755 0.16651267
000080 e6 29 de 3d 4d 9e ef 3d ea c4 02 3e 2e a0 14 3e
       0.10847835 0.11700115 0.12770429 0.14514229
000090 89 6b 13 3e 75 14 0e 3e 5e e4 11 3e ce b9 24 3e
       0.1439649 0.13874991 0.14247271 0.16086504
0000a0 b3 30 ff 3d a4 51 e6 3d 1d 03 16 3e 00 f3 4a 3e
       0.124604605 0.112460405 0.14649625 0.1981926
0000b0 f9 6e 17 3e 77 4c c8 3d 36 2b 92 3d b3 9d 54 3e
       0.14788426 0.097802095 0.07137148 0.20763282
0000c0 92 61 d0 3d a8 06 61 3e c2 3c 07 3e 58 c6 0d 3e
       0.1017486 0.21975195 0.13206771 0.13845193
0000d0 e4 ef 0e 3e 03 e9 22 3e a0 ec c3 3d b2 3b 06 3e
       0.13958699 0.159092 0.09566617 0.1310871
0000e0 77 2b 0d 3e 4e 4a 4c 3e 1e 69 2a 3e 5a 01 38 3e
       0.13786112 0.1995022 0.16641662 0.17969266
0000f0 6b 40 1e 3e cd e5 8d 3d e3 db 29 3e 72 a8 04 3e
       0.15454261 0.06928597 0.16587786 0.12954882
000100 a4 07 09 3e 4f 22 1a 3e 78 2c 06 3e 17 04 22 3e
       0.13381821 0.1505215 0.13102901 0.15821873
000110 b7 00 e0 3d 6a df f8 3d 2f 13 ff 3d 2f 75 80 3e
       0.10937636 0.12151988 0.12454831 0.25089404
000120 f3 5c d2 3d 97 dd 04 3e 07 59 f2 3d 8a 42 b3 3d
       0.10271635 0.12975155 0.11833387 0.08752926
000130 9d 71 6d 3d db a0 12 3e 25 c7 82 3e 59 8f 1c 3e
       0.05796968 0.14319174 0.2554256 0.15289058
000140 b8 0b 0f 3e 4e ea f5 3d 98 10 00 3e fb e8 75 3e
       0.13969314 0.12007581 0.1250633 0.24014656
000150 7f 90 ce 3d c4 29 7b 3d 56 f0 d2 3d 85 ec 81 3e
       0.10086154 0.061319128 0.10299747 0.25375763
000160 8e c4 f7 3d 61 a6 23 3e 35 17 1f 3e 00 b3 2e 3e
       0.12098037 0.15981437 0.15536197 0.1706047
000170 d4 6b 17 3e eb e9 d5 3d 40 17 f5 3d 42 53 b8 3d
       0.14787227 0.10445007 0.11967325 0.09000255
000180 30 d4 a1 3d e0 08 bd 3d eb 27 de 3d 44 2a 5e 3e
       0.079018 0.092302084 0.108474575 0.2169581
000190 6c 78 b3 3d 78 fc 37 3e 9f fe 1c 3e f6 db 19 3e
       0.08763203 0.17967403 0.15331505 0.15025315
0001a0 21 e2 da 3d e5 73 70 3e b4 b0 81 3d eb 67 10 3e
       0.10687662 0.2348171 0.063325316 0.14102142
0001b0 1d cb f8 3d 5e d9 b9 3d 53 7e 65 3d 60 2a 78 3d
       0.12148116 0.090746626 0.056028675 0.060587287
0001c0 67 e5 46 3d d1 ae f4 3d 30 63 19 3e 6e ff be 3d
       0.04855862 0.11947406 0.14979243 0.09326063
0001d0 db df e4 3d 03 cf 13 3e 58 6b a0 3d da ef 36 3e
       0.111755095 0.14434437 0.07832974 0.17864934
0001e0 b5 34 1b 3e 65 4f 23 3e 7f 68 0e 3e 0b 0d cc 3d
       0.15156825 0.15948255 0.1390705 0.09963425
0001f0 a9 bd da 3d 40 47 57 3e 38 b8 53 3e 81 db dc 3d
       0.10680706 0.21023273 0.20675743 0.107840545

fc.4.weight f4 [64, 128]
000000 bf 3a 87 bd 8d 41 82 3d b4 b4 21 3d d0 0b 80 3d
       -0.06603002 0.06360159 0.039478973 0.06252253
000010 11 1d 8b 3d fe 8f 67 3d c9 20 53 3d 47 58 a9 3d
       0.06792653 0.056533806 0.05154494 0.08268791
000020 ec f2 8c bd 21 de 03 3d 73 6d 88 3c 1b 92 25 bd
       -0.06882271 0.03219426 0.016653752 -0.04042254
000030 5c 39 4c bd 3e be 8b 3d b2 ea 18 bd 6d 44 56 bd
       -0.04985939 0.06823395 -0.037333198 -0.05231135
000040 a0 21 93 3d 37 e5 56 bd 8a e1 a1 bd 5a 6b 2c 3d
       0.07184148 -0.05246469 -0.07904346 0.042094566
000050 05 b0 9e 3d 7c ed 2c bd 80 6e 07 bd 9b 8f bd bc
       0.07748417 -0.04221867 -0.033064365 -0.023139765
000060 93 28 2a 3d 03 1e 92 3d 9c 87 a2 bd 9f 5a a1 bc
       0.0415426 0.071346305 -0.07936022 -0.019696532
000070 a3 16 a6 3d c0 70 f2 bc 57 f3 4e bd 58 a9 89 bc
       0.08109786 -0.029594779 -0.050525036 -0.016804382
000080 42 1b 2b bd af 6c 13 3b 5a 31 87 3d dd 14 1d bd
       -0.041774042 0.00224952 0.0660121 -0.038349975
000090 b3 c4 8d 3d 85 0d 81 3d 16 15 c1 3d 9f dd 54 3d
       0.06922283 0.06301407 0.0942785 0.051969167
0000a0 92 b9 97 bd 50 47 51 bd ca 10 0d 3d 5f 8b 2c 3d
       -0.074084416 -0.0510934 0.03443984 0.042125102
0000b0 6f 57 48 bd 76 2b 4f 3d 0c 04 4c 3d 2f 00 d0 3c
       -0.04891151 0.050578557 0.049808547 0.025390713
0000c0 61 4b 21 bd dc 85 42 3d 38 66 51 bd 84 0a eb bd
       -0.039378528 0.04749094 -0.051122874 -0.11476615
0000d0 dc 07 21 3b 23 e8 04 bd 3e a4 dd ba 09 c7 93 bd
       0.0024571335 -0.032447945 -0.001690991 -0.07215697
0000e0 a5 83 99 bd bb 8b f7 bb 01 69 4b bd 8b ff e1 bc
       -0.07495812 -0.007554499 -0.049660686 -0.027587673
0000f0 fb 22 9b bc 60 d4 b6 bd 4a f6 b5 bb 6f c0 4e 3d
       -0.018937578 -0.08927226 -0.0055530416 0.050476488
000100 1a 80 2d bc 04 1e 3f 3c de 80 36 bd 0d 80 44 3d
       -0.010589624 0.011664871 -0.04455649 0.04797368
000110 88 cd 92 bc c0 48 6b bd bc 8c aa bd 6c af 9c 3d
       -0.01792027 -0.057442427 -0.08327624 0.076506466
000120 98 be c7 3d da bf df 3c 4b 9a fa bc 48 52 83 3d
       0.0975315 0.027313162 -0.03059115 0.06412178
000130 5a df c7 bd 47 c9 c1 3d 3d 01 d8 bb 4d 4d d2 bc
       -0.09759398 0.09462219 -0.0065919445 -0.025671626
000140 5c 9b 2d 3a 94 47 87 3c 8b 0b c4 b9 0b 75 c2 bc
       0.00066225766 0.016513623 -0.00037392633 -0.023737451
000150 a3 56 da bc 48 1f 18 3d 1f 7e 0c 3d 33 83 aa bd
       -0.02665264 0.037139207 0.034299966 -0.083258055
000160 fe 5f c4 3c 11 90 f1 bd 69 b1 ae 3c 1d bc 3d bd
       0.023971554 -0.117950566 0.02132483 -0.046321977
000170 06 90 a6 3d 63 2e d6 bc 2e 4a 51 bc 56 60 a8 3d
       0.08132939 -0.026145166 -0.0127740335 0.082214996
000180 6b 47 03 bd 09 da c2 bd 04 42 60 bd a7 d6 cc bd
       -0.03205053 -0.09514243 -0.054750457 -0.10001879
000190 87 3c 81 bd d0 03 9a bd cf 25 51 3d 70 72 52 3c
       -0.06310373 -0.075202584 0.051061448 0.012844667
0001a0 63 ed ca 3c ea 09 0b 3d 5a d9 85 37 6b 7b 2d bd
       0.024771398 0.033945 1.5956048e-05 -0.04235403
0001b0 41 d8 99 ba b4 73 d0 bc 8e f5 18 bc 35 79 c8 bd
       -0.0011737422 -0.025445797 -0.009335889 -0.097887434
0001c0 90 2e 62 3d b4 03 48 bd 6b ef 5c bd de 09 b8 3d
       0.055220187 -0.048831657 -0.053939264 0.08986257
0001d0 12 31 99 3c 63 03 95 3b 3d 18 23 bd f2 7f bb bc
       0.018700156 0.004547523 -0.039818037 -0.022888158
0001e0 d9 30 66 bd 91 49 d5 bc e3 a5 50 bd e1 62 5b 3d
       -0.05619893 -0.026036056 -0.050939452 0.053561095
0001f0 87 7e be bd d2 77 a1 bd 31 b8 13 bc b1 55 a6 3d
       -0.09301477 -0.07884182 -0.009016083 0.08121813
000200 28 b3 7c 3d e3 b7 56 3b e5 d7 aa bd 57 71 d5 3b
       0.061694294 0.0032763414 -0.0834196 0.0065137553
000210 87 41 10 bd 3b 84 07 3d dc 7c 91 3d 94 13 42 bd
       -0.03521874 0.03308509 0.07103893 -0.047381952
000220 b9 c6 3c 3d a7 b3 cb bb a3 d0 d2 bc 63 60 6b bd
       0.046087954 -0.0062164846 -0.025734251 -0.05746497
000230 54 00 3a 3d 44 06 a3 3c e6 0c 2c bd ba 65 56 bd
       0.04541047 0.019900449 -0.04200449 -0.052343108
000240 99 3c 19 3d 3b 20 52 bc e5 70 39 bd 67 37 a9 bd
       0.037411306 -0.012825067 -0.04527368 -0.0826252
000250 60 54 9d 3d 6b 24 b2 bd 61 7d 5a bc 9d e0 77 3d
       0.07682109 -0.086983524 -0.013335557 0.060516942
000260 02 2a 31 bc 60 35 81 3d 2f f4 0c 3c 8e 88 e8 bc
       -0.010813238 0.063090086 0.00860314 -0.028385427
000270 1c f7 a7 3d ca 4e ac bd ca 06 86 3a 1a 58 43 bd
       0.08201429 -0.08413465 0.0010225412 -0.047691442
000280 60 fd d6 3c 13 5e 29 bd 3b ad 88 3d 09 04 8b 3c
       0.026243865 -0.04134948 0.06673666 0.016969698
000290 4e 2f d0 bc 7d ef 08 3d 24 e2 8b bd 98 e7 7e bd
       -0.025413182 0.03343152 -0.06830242 -0.062232584
0002a0 e4 cf d3 3c bc 5f 68 3b a9 47 e9 3b 31 5d 90 3d
       0.025855966 0.0035457453 0.0071191383 0.07049025
0002b0 88 7a 1a bd bb 4f 27 bc fc 4f 49 3d b5 47 de bd
       -0.03771451 -0.01021188 0.049148545 -0.10853521
0002c0 8a c5 ab 3d ae b6 07 3d c7 24 96 bd 25 f6 40 bd
       0.08387287 0.0331332 -0.073312335 -0.04710974
0002d0 d7 7c d0 bd b7 5b 03 3c 79 65 e4 3c fd e9 1f bd
       -0.10180061 0.008017472 0.027880417 -0.039041508
0002e0 b7 f7 8e 3d 58 aa 5f 3d b9 cf 9e bc 79 eb 36 bd
       0.069808416 0.05460581 -0.01938616 -0.044658158
0002f0 5d 63 a5 3d 88 48 64 3d f3 e2 00 3d 75 fd 9f bd
       0.08075593 0.055733234 0.031466436 -0.07812015
000300 68 08 8a 3d da f1 a8 3c 6d 88 0b bd 00 af 70 bd
       0.067398846 0.020623136 -0.034065653 -0.058760643
000310 ad b7 a8 bc 65 55 8c 3d db 91 0c bd 64 80 d9 3b
       -0.020595396 0.06852225 -0.034318786 0.00663762
000320 2e 8a 9c 3c d9 d2 f4 bc c2 03 8e 3c ab bd 9c 3d
       0.019108858 -0.029885696 0.017335776 0.07653364
000330 33 64 89 3d 30 ba 87 3d 52 a4 93 bc bf d7 74 3d
       0.067085646 0.06627309 -0.01802269 0.059776064
000340 b9 f5 ad ba a7 86 84 bd 1e 36 c9 3b 0e 61 9a bd
       -0.0013272084 -0.064709954 0.0061404845 -0.07538043
000350 e1 3d 9c 3d 32 65 91 bc 1f 15 8d 3d 08 18 15 3c
       0.0762899 -0.017748449 0.06888794 0.009099968
000360 cf 78 7b bb 92 81 63 3b 66 06 35 bc 53 12 69 bc
       -0.0038371568 0.003471468 -0.011048889 -0.01422556
000370 1a c2 be bc d7 94 44 bd ed 55 95 3d 69 00 7c 3c
       -0.023285914 -0.047993507 0.0729178 0.015380957
000380 3a c6 2d 3d 2b 54 a6 3b a0 aa 4b bd a9 d5 ba bd
       0.04242537 0.0050759516 -0.049723268 -0.09122784
000390 48 80 3f 3c 9d 28 cb bc 1b 0f 54 3d 3c 2e 8b 3c
       0.0116882995 -0.02479964 0.05177222 0.01698982
0003a0 4c a2 48 3d 96 5d 2f 3c 75 3f 14 bd 8b ac 23 3d
       0.048982903 0.010703465 -0.03619333 0.03995947
0003b0 65 b6 3a bd 0d 1c 55 bd 50 f9 11 3d 7b d5 80 3c
       -0.0455841 -0.052028704 0.035638154 0.015726795
0003c0 ab 5e 5d bd 3d 32 21 bd 43 7c a3 3d 4d 5c ae bd
       -0.05404536 -0.03935455 0.079826854 -0.08513699
0003d0 d3 4c 2a bd 48 1a 3f bd aa 82 32 bd 80 db 2d 3d
       -0.04157717 -0.046655923 -0.043581642 0.04244566
0003e0 0b 3f 15 bc bf 62 1e bd f2 31 ec bb da 21 1b bd
       -0.009109269 -0.03866839 -0.0072081024 -0.03787408
0003f0 95 4a 96 3d 9d 1d 04 bb 25 15 51 bc 52 29 17 3d
       0.07338444 -0.0020159252 -0.012761389 0.03690464

fc.4.bias f4 [64]
000000 70 87 c2 bc 38 73 9f bc ab 3e 85 3d e6 90 a6 3d
       -0.023746222 -0.01946412 0.065060936 0.08133106
000010 15 7b af bd fa 4e 5e 3d 92 a3 1d 3d 99 23 e5 3c
       -0.08568398 0.054274537 0.03848607 0.027971076
000020 12 bf 8e bc dc 9e 7c 3d 83 b8 66 bd 08 77 c1 3b
       -0.017425094 0.061674938 -0.056328308 0.005904082
000030 01 bd 49 3d 7b ae 25 3c a4 f5 46 bd 48 c3 38 3a
       0.049252514 0.0101124 -0.048574105 0.0007048142
000040 7e 42 85 3d 56 41 34 bd db 4b b8 bc 48 8e 9b bd
       0.06506823 -0.04400762 -0.022497108 -0.07595497
000050 49 12 1e 3d 6e 80 59 bd b1 aa 80 3d 32 42 fc 3c
       0.038591657 -0.053100996 0.06282557 0.030793283
000060 08 0d a6 3d 20 fe a4 bd a8 40 71 bd cd 55 3a bd
       0.08107954 -0.08056283 -0.05889955 -0.045491982
000070 68 f1 18 3c 34 8e ac 3c f6 57 3f bd db 4c 86 bd
       0.0093348995 0.021063901 -0.046714745 -0.06557628
000080 5b 41 f8 bc fb c6 0d bc f6 02 eb bd a9 8a cb bd
       -0.030304601 -0.008653398 -0.11475174 -0.09938557
000090 59 12 0d bd cc 74 12 3d fc f1 89 3c 75 6d 85 bd
       -0.034441326 0.035755917 0.01683902 -0.06515018
0000a0 d6 35 64 bd 3d 3d 81 bd 35 71 cb 3b 65 67 c8 3d
       -0.055715404 -0.063105084 0.0062085637 0.09785346
0000b0 17 69 96 bd 69 bf 9c 3c fb 8d 8e 3d c1 ea 7a bd
       -0.07344263 0.01913424 0.069606744 -0.061259035
0000c0 09 49 c1 3d b9 4a 93 3d 1f 08 51 3c b7 50 3a bd
       0.094377585 0.071919866 0.012758284 -0.045487132
0000d0 5c cd 7b bc ca 91 14 bc c5 d7 07 bc 31 81 05 bc
       -0.015368786 -0.009067962 -0.00829119 -0.008148477
0000e0 56 1f 94 3d 89 7c a2 3d 45 57 bc bd 59 1a 17 3c
       0.07232539 0.079339094 -0.09196333 0.00922259
0000f0 01 90 6b 3d 65 2c 05 3d 11 24 6e 3d 9c 48 79 3c
       0.05751038 0.03251304 0.058139864 0.015215065

fc.7.weight f4 [32, 64]
000000 90 ab c5 bd 9c e7 bb bd a7 f4 28 be 14 c5 f7 bc
       -0.096518636 -0.09175035 -0.16499577 -0.030245341
000010 6d 5b 98 3d 9e 3a 46 3d b2 ba 24 bd 43 9e c6 3c
       0.07439313 0.048395745 -0.04021711 0.024245387
000020 8a de 17 bd f7 50 1b be 43 9e ac bc a0 e9 40 bd
       -0.037077464 -0.15167604 -0.021071559 -0.047097802
000030 56 69 29 be 9b 68 bd bd a6 2e 97 3d 25 db 07 be
       -0.16544089 -0.092484675 0.07381944 -0.13267191
000040 d6 75 33 3d 07 a2 cc bd 19 e5 ec 3a 7b cd 18 3d
       0.04381355 -0.09991842 0.0018073648 0.037305336
000050 49 fc f0 bc d8 27 42 bd 4f 29 1e be 89 3f f3 bc
       -0.029417174 -0.04740128 -0.15445445 -0.029693382
000060 0c fb 02 be 94 36 81 bb cc 2d 40 3c e8 ba 02 be
       -0.1279108 -0.003943274 0.011729669 -0.12766612
000070 10 b0 29 bb 5f ee 05 bb 55 7c 62 3c a3 68 9d bd
       -0.0025892295 -0.002043627 0.013823588 -0.076859735
000080 75 c9 d4 bb 80 e8 f9 3c c6 74 b5 3c 5c e7 f6 3d
       -0.006493742 0.030506372 0.022150408 0.12055847
000090 59 89 14 be 92 43 4a bd c7 75 96 bd c4 8b 07 3b
       -0.14505519 -0.049380846 -0.07346683 0.0020682672
0000a0 19 8a 6e 3d 04 d1 1a bd 7d 10 07 3c 3c 16 19 be
       0.05823717 -0.03779699 0.008243677 -0.14949888
0000b0 4e 52 c6 3d d0 8f 61 bc 3d 7e 1f 3d e9 b6 dd 3d
       0.09683667 -0.013767198 0.03893875 0.10825903
0000c0 ea 0e 6a bd 39 67 fb 3c 1c 3a 59 3d bf 88 90 bc
       -0.05714313 0.030688869 0.053033933 -0.01764333
0000d0 32 92 1d be 56 7a 2a be 11 7f 19 3b b1 ba ad bc
       -0.153878 -0.1664823 0.0023421685 -0.021207185
0000e0 1e a0 23 be a8 73 22 be 6a 5b 90 bb e1 b6 b9 3d
       -0.15979049 -0.15864432 -0.0044054287 0.090680845
0000f0 46 93 9b bc a5 4d c8 3d 0d 89 0b be ac 0a f5 bd
       -0.018991124 0.097804345 -0.136265 -0.11964926
000100 db 81 1e 3e 6e 8f 94 3d bc 62 0f 3e 0c b8 ba 3c
       0.15479223 0.072539195 0.14002508 0.022792839
000110 f8 25 96 bc 92 3a 25 bd 14 58 13 3e 74 90 99 bd
       -0.018328652 -0.04033906 0.14389068 -0.07498255
000120 5b db 06 3e 12 7d ba 3d ac 20 76 3d f6 42 03 3b
       0.13169615 0.091058865 0.060089752 0.0020028926
000130 24 16 17 3d e5 5c 03 3e f5 83 1f be 34 73 b1 3d
       0.03688635 0.12828405 -0.15577681 0.086645514
000140 79 dd 06 be b8 69 88 3d 0d 4d b1 3d e7 d0 99 3d
       -0.13170423 0.06660789 0.086572744 0.07510548
000150 f5 35 13 3d a4 d6 7f 3d d9 7b ab 3d 96 3d 5a 3d
       0.03594013 0.062460557 0.083732314 0.05328139
000160 bd 5d 9f 3c 8c 24 98 bd 6c c6 0a be 63 02 2f 3e
       0.019453878 -0.07428846 -0.13552254 0.17090754
000170 af 97 ea 3d b9 ad ea 3d ef a6 cd bd d7 42 8c bb
       0.114547126 0.11458916 -0.10041606 -0.004280429
000180 f5 db c5 3d 40 2b b1 bd f9 4b 0a be d6 f9 c2 3b
       0.09661094 -0.086508274 -0.13505544 0.005950193
000190 da 43 09 3e 26 e4 b7 bc f4 02 38 bd 08 ac d3 bd
       0.1340479 -0.022447657 -0.04492469 -0.10335547
0001a0 6e 1a 1d bd c2 5d 53 3d 6b 3b e4 bc 29 b8 05 3e
       -0.038355283 0.051603086 -0.027860364 0.13058533
0001b0 94 fb 15 3d a5 2c d8 bd 42 33 25 bd c9 dc 75 bd
       0.036616877 -0.1055539 -0.040332086 -0.06002501
0001c0 b0 b2 07 3e 17 dd 97 3d 41 52 78 bd af 16 04 3e
       0.13251758 0.074152164 -0.06062532 0.12899278
0001d0 8c 91 b9 bb ce 51 2f bd f0 ac 00 be 00 d2 6b bc
       -0.0056631025 -0.042802624 -0.1256597 -0.01439333
0001e0 8d fb 15 3e fb 42 65 3d 64 4e c4 3c 1f 6c e0 3a
       0.1464674 0.05597208 0.02396316 0.0017122066
0001f0 cc 24 20 3d b9 c6 2e 3d f9 58 94 3d 8f 35 76 bd
       0.039097592 0.042669985 0.07243533 -0.06010967
000200 48 d0 88 3d 98 f4 56 bd e4 0f 1e 3e ae b7 41 3e
       0.066803515 -0.052479357 0.1543575 0.18917724
000210 5d 94 8c bd bc d1 92 bd 38 49 bc bc 79 2d 04 be
       -0.068642356 -0.0716891 -0.022984132 -0.12907971
000220 07 d4 0c 3e b3 19 1d 3e f8 9d 0d 3d bd 73 2f bd
       0.13752757 0.15341835 0.03457448 -0.042834986
000230 97 8b 1d 3c c1 85 80 3d bf 6a f9 bd 37 c4 32 3e
       0.0096158 0.062755115 -0.12178563 0.17457663
000240 5e 87 58 bd bb 1c b6 bc 2f 9b 8a bd 6c 8d af bd
       -0.05286347 -0.022230497 -0.0676788 -0.08571896
000250 f4 cc 52 bd d8 ac cd bd 4b e1 cd 3d 02 dd 29 3e
       -0.05146499 -0.10042733 0.10052737 0.16588214
000260 a3 a2 68 3d 80 77 eb bd db ad 55 bd 2f 61 4f 3e
       0.056795727 -0.11497402 -0.052167755 0.20251916
000270 d2 b6 be bb ba 83 10 3d da fa 5d bd e2 6e 8f bd
       -0.0058201337 0.035281874 -0.05419431 -0.07003571
000280 f0 9e 89 3d 51 3d d0 bc b0 95 65 bc 47 37 28 bd
       0.06719768 -0.025419863 -0.014012739 -0.04106834
000290 15 11 45 3d 74 ca 51 3e 85 b6 b0 3d b3 da 4f bd
       0.048111994 0.20487386 0.08628563 -0.050745677
0002a0 4e 9b 31 3d 6e 9b cc 3b cb 73 b9 bd d3 ce 95 3d
       0.043361 0.0062441146 -0.09055289 0.07314839
0002b0 b6 56 e9 bd 33 55 0c be 86 b4 3a 3d dd 1c 90 bd
       -0.11393492 -0.13704376 0.045582317 -0.07036755
0002c0 3b 37 18 3e 71 6a b5 bd 77 37 0c be 00 02 90 3d
       0.14864819 -0.08858193 -0.13693033 0.070316315
0002d0 0e a7 c2 3b 24 cf 65 bc c5 86 a0 bd 3e e5 2b 3c
       0.0059403246 -0.014026437 -0.07838205 0.010491667
0002e0 07 d1 aa 3d cc d9 29 3e 13 96 5e bc c0 29 97 3d
       0.0834065 0.16586989 -0.013585585 0.0738101
0002f0 85 99 c9 3d 96 51 fd 3b 37 75 a6 3d 5b 71 a7 bc
       0.09843735 0.007730673 0.08127826 -0.020439794
000300 79 7c 42 3d 55 bd 8f bd d9 2b ae 3d c0 a6 68 3d
       0.047481988 -0.07018534 0.08504457 0.05679965
000310 ab 44 19 bb 65 5f 5d 3d a2 53 ba 3d 12 d3 f0 bb
       -0.0023386877 0.054046053 0.09097983 -0.0073493803
000320 2e ce 01 3e e9 2d 92 bd 78 c4 ae 3d 93 76 56 bd
       0.12676308 -0.07137663 0.08533567 -0.052359175
000330 ef 8a 84 bd 21 af 95 3d f6 81 5a bd 1c d9 06 bd
       -0.06471812 0.07308794 -0.053346597 -0.032921895
000340 1d 64 a8 ba 43 18 73 bc 81 73 43 3d ef 06 de bc
       -0.0012847219 -0.014837327 0.047717575 -0.027102916
000350 38 a0 2c bd a3 a2 45 bd 8a 7b b5 3d ec e9 55 3d
       -0.042144984 -0.048250806 0.08861454 0.05222504
000360 07 ff 6a bd 32 0d 77 bd d8 ca 72 bd a6 7a d4 3c
       -0.05737212 -0.06031532 -0.059275478 0.02593739
000370 46 bf 4b bd c0 19 91 3d 43 19 aa 3d 51 33 50 bd
       -0.04974296 0.070849895 0.083055995 -0.05083019
000380 dc 70 96 bd 3e 4b ca bd 07 3a 12 bc 22 54 67 3d
       -0.07345745 -0.098776326 -0.008924968 0.05647672
000390 80 cb c3 3a b2 fc ca 3d 0f 9e c4 bd 49 b3 11 bd
       0.0014937967 0.09911479 -0.0960046 -0.03557137
0003a0 6f c3 69 3c b0 4f 94 3c 6c 82 d3 3c 3c e3 82 3d
       0.014267786 0.018104404 0.025819026 0.06390998
0003b0 73 70 ac bd c0 16 5e bd 15 64 53 bc 5b 42 54 3d
       -0.084198855 -0.054220915 -0.012902279 0.051821094
0003c0 a1 a1 26 3c 86 ea 33 3d 17 d1 57 3c 14 fb d2 3c
       0.010170371 0.04392483 0.0131724095 0.025754489
0003d0 3d c0 97 bd 82 a0 74 3d a2 ca 30 3b bb 58 d6 3c
       -0.074097134 0.059723385 0.0026976247 0.026165357
0003e0 be 95 12 bd 40 71 ed ba b5 14 d4 bd d1 12 ca bd
       -0.035787337 -0.0018115416 -0.10355512 -0.0986687
0003f0 c5 5e 09 bd 7d eb a2 bd 3a e3 96 3d 19 41 d5 3c
       -0.033537645 -0.07955072 0.07367559 0.026032018

fc.7.bias f4 [32]
000000 2f 4c fc 3c 9d f9 27 3e e2 f5 dd 3d c4 5c d2 3c
       0.030798046 0.16403814 0.10837914 0.025679
000010 3e f3 8b 3d 44 bf e8 3c c9 83 26 bd 92 59 4a 3c
       0.06833504 0.028411515 -0.040653024 0.012350457
000020 cf 25 96 bd 66 a6 21 be a3 93 fa bd 1a b6 68 3d
       -0.0733143 -0.15786132 -0.12235191 0.05681429
000030 fa 51 3a be 95 cc 27 3e 7b 0f 26 bd 52 ef ec 3c
       -0.18195334 0.16386636 -0.040542107 0.02892271
000040 c6 9d e7 3d e8 be 23 3e 19 56 26 bc e5 7a 93 ba
       0.1130939 0.15990794 -0.010152363 -0.0011251835
000050 65 a6 45 bd 25 bc 0f be 1f c7 d7 3d 78 e9 48 3d
       -0.04825439 -0.14036615 0.10536026 0.04905078
000060 7e 73 6d 3b 0a a7 27 be a4 20 4b 3d 53 0e 83 bd
       0.0036232169 -0.16372314 0.049591675 -0.063992165
000070 82 8b e3 3d 72 cb 85 3d 73 d6 41 3d 71 c3 18 3e
       0.111105934 0.06532945 0.047323655 0.14918305
